p1_navigation/checkpoint.pth (torch, 29207 bytes, 6 tensors)

fc1.weight f4 [64, 37]
0	0xbdad2f61	-0.084563024
1	0xbb9324e0	-0.00449048
2	0xbcae96a4	-0.021312065
3	0xbd69c2b6	-0.057070456
4	0x3d365d85	0.04452278
5	0xbcc230be	-0.023704883
6	0xbd660864	-0.056160346
7	0x3e8454c4	0.2584592
8	0xbc3b193c	-0.011419591
9	0x3e1501ee	0.14551517
10	0xbcf175c0	-0.029475093
11	0xbda5b93c	-0.08091971
12	0xbdd03ef5	-0.10168258
13	0xbe3e0fde	-0.1856074
14	0xbeeea4ce	-0.4661011
15	0xbd9908f2	-0.07472409
16	0xbe08f8eb	-0.13376205
17	0x3e8bd945	0.273142
18	0x3dcdc2b4	0.10046902
19	0xbd14b382	-0.036304004
20	0x3dd73a35	0.10509149
21	0x3dbb8232	0.09155692
22	0xbd3805ef	-0.044927534
23	0x3e1d8099	0.15381087
24	0xbe32273f	-0.17397784
25	0xbe388f88	-0.18023503
26	0x3dce494c	0.10072574
27	0x3cb326be	0.02186906
28	0x3d4d6910	0.050149024
29	0x3bd24a2c	0.0064175334
30	0x3e00b264	0.1256805
31	0x3dc85df4	0.09783545
32	0xbe251861	-0.16122581
33	0xbf04b509	-0.5183874
34	0xbecf3e73	-0.40477332
35	0xbb5a02e6	-0.0033265888
36	0xbcab41c2	-0.02090538
37	0x3e45f8c6	0.19333181
38	0x3e113820	0.14181566
39	0x3d4ef7e0	0.05052936
40	0xbe00a67f	-0.12563513
41	0xbe6b753a	-0.22993937
42	0x3dca08f1	0.09864987
43	0xbe621f04	-0.22082144
44	0xbdef083d	-0.11671493
45	0xbda655a0	-0.081218004
46	0xbd88eb77	-0.06685536
47	0xbca1ff6a	-0.019775111
48	0x3d1daac6	0.03849294
49	0x3ccd93fb	0.025094977
50	0x3e48e3e6	0.19618186
51	0x3d8a2220	0.0674479
52	0x3e426ca9	0.18986763
53	0xbd9c679c	-0.076369494
54	0xbcf33c68	-0.02969189
55	0x3ca2a7fe	0.019855496
56	0xbe6f346e	-0.23359844
57	0xbe07b2c2	-0.13251784
58	0xbc1f61eb	-0.009727935
59	0xbd60c94c	-0.05487947
60	0xbde16ee5	-0.110074796
61	0x3e0ffce4	0.14061314
62	0xbd89061e	-0.0669062
63	0x3d4dd3cf	0.050250825
64	0x3d743b18	0.05962667
65	0xbd188ece	-0.037245564
66	0x3e2bcfc7	0.1677848
67	0x3d1e04c4	0.038578764
68	0x3e424f38	0.18975532
69	0x3d584d9f	0.0528084
70	0x3e3a2905	0.1817971
71	0x3ca229d7	0.019795341
72	0x3da4795c	0.0803096
73	0x3cb2accd	0.021810913
74	0xbd0b7f3a	-0.03405688
75	0x3de4de30	0.111751914
76	0x3de2ba75	0.1107072
77	0x3dd97f96	0.10620038
78	0x3c3e02d2	0.011597352
79	0xbf10732d	-0.56425744
80	0xbdb8d60e	-0.09025203
81	0x3ed048c6	0.40680522
82	0x3e76efd8	0.2411493
83	0xbed90f13	-0.42394313
84	0x3d1620d7	0.036652412
85	0xbcc38879	-0.023868786
86	0xbd9ac03b	-0.07556196
87	0x3e1ab9e7	0.15109979
88	0x3ea1d457	0.31607315
89	0xbdc2ca0c	-0.09511194
90	0x3e19f981	0.15036584
91	0x3ded2ee8	0.11581212
92	0x3ced8747	0.02899517
93	0x3d49ba65	0.049250025
94	0xbe3013fc	-0.17195123
95	0x3d8d21b4	0.06891194
96	0x3d96154c	0.07328281
97	0x3c33690c	0.010950338
98	0xbd11ee8e	-0.035627894
99	0xbd83967e	-0.064251885
100	0x3d25f369	0.040515337
101	0x3e8b95b8	0.27262664
102	0x3daa1521	0.08304811
103	0xbe8db515	-0.27677217
104	0xbe7051bf	-0.23468684
105	0x3d4ce9fa	0.050027825
106	0xbd7b45e5	-0.061345953
107	0xbde1b8dc	-0.11021587
108	0x3c9c39c4	0.019070514
109	0x3d39159d	0.045186628
110	0xbc3784ba	-0.011201078
111	0x3cfe43cb	0.031038186
112	0xbd0463a1	-0.032321576
113	0xbd261970	-0.040551603
114	0x3df58680	0.119885445
115	0xbdc0dded	-0.09417329
116	0xbedf5fba	-0.4362772
117	0x3cbafe8d	0.022826457
118	0x3b1790ba	0.0023127035
119	0x3e55c117	0.20874439
120	0x3e9647aa	0.2935155
121	0xbd9a8f30	-0.07546842
122	0xbdd040d1	-0.10168613
123	0x3dc7d1da	0.09756823
124	0xbd9e4222	-0.077274576
125	0xbd8d51c9	-0.06900365
126	0xbd87ffd3	-0.066405915
127	0x3bbf6030	0.005840324
128	0xbe0f1780	-0.13973808
129	0xbe8a8202	-0.27052313
130	0x3d49a895	0.049233038
131	0x3d2bb9aa	0.04192511
132	0xbe025fce	-0.12731859
133	0xbedb0b3b	-0.42782006
134	0x3d987fd1	0.07446254
135	0xbeebcf2a	-0.4605649
136	0xbde0d324	-0.10977772
137	0xbd5af42c	-0.053455517
138	0x3e02ad35	0.12761386
139	0x3d9cc83f	0.076553814
140	0x3eb6f978	0.35737205
141	0x3e38e5c2	0.18056396
142	0x3d8ed1de	0.06973623
143	0xbea8fc31	-0.33004907
144	0xbf16faf0	-0.5897665
145	0xbf0626cc	-0.5240295
146	0xbc5671f6	-0.013088694
147	0x3c2468a7	0.010034717
148	0xbe0677f2	-0.13131693
149	0xbe166dae	-0.14690277
150	0xbd9f5545	-0.07779936
151	0xbe26f65f	-0.1630492
152	0xbe03431a	-0.12818566
153	0x3cc05e2f	0.02348241
154	0x3d94231f	0.07233261
155	0xbcc8d247	-0.02451433
156	0x3e37adb5	0.17937358
157	0x3c9b31e9	0.018944697
158	0xbdb7fcd7	-0.08983772
159	0xbd080cb6	-0.033215247
160	0x3caf1c02	0.02137566
161	0xbdd7894e	-0.10524236
162	0xbd48ee86	-0.0490556
163	0xbd64257c	-0.05569981
164	0xbdc803a3	-0.09766319
165	0xbdd70926	-0.10499792
166	0xbdf14f85	-0.11782745
167	0xbc06145e	-0.008183567
168	0xbdee94fb	-0.116495095
169	0x3d7289bc	0.059213385
170	0x3db30f5f	0.08743166
171	0x3d849d33	0.06475296
172	0x3e821b1c	0.25411308
173	0x3e5ce67b	0.21572296
174	0xbe8a0dcb	-0.26963648
175	0xbd95d692	-0.07316317
176	0xbee6a40c	-0.45047033
177	0xbfacbfb1	-1.3496
178	0x3a3effc5	0.00072860374
179	0xbd8d0bee	-0.06887041
180	0x3daecee2	0.085355535
181	0x3e9b1d88	0.30295968
182	0x3ec25e89	0.3796275
183	0x3d523544	0.05132033
184	0x3b9595c7	0.004564974
185	0x3da9c98a	0.08290394
186	0x3c9ee173	0.019394612
187	0x3bf98cc1	0.007615656
188	0xbb88bd5d	-0.0041729645
189	0x3d9a54d5	0.07535712
190	0x3ee8725c	0.4539975
191	0xbe7eed9c	-0.24895328
192	0xbedc7af2	-0.4306255
193	0xbe9af277	-0.3026311
194	0xbfc7c6c0	-1.5607529
195	0xbd8974bb	-0.06711718
196	0x3c035ac9	0.00801725
197	0x3dc05ac1	0.0939231
198	0x3c95a981	0.018269302
199	0x3db7d959	0.08977003
200	0x3e195408	0.14973462
201	0x3d792978	0.060830563
202	0xbdae7c04	-0.08519748
203	0xbd81d752	-0.06339897
204	0xbd7743be	-0.06036734
205	0x3d64855f	0.055791255
206	0x3e1a1845	0.1504832
207	0x3e2975b3	0.16548805
208	0x3e3abfd6	0.18237242
209	0x3e11ffb6	0.14257702
210	0x3da997f2	0.082809344
211	0xbb4027c0	-0.0029320568
212	0x3d5231e5	0.051317114
213	0x3b865084	0.0040989537
214	0xbd86a5df	-0.06574606
215	0x3db08b5e	0.08620332
216	0xbcaabb4a	-0.02084126
217	0x3c4498bc	0.011999305
218	0x3dd258cb	0.10270842
219	0xbd76bac1	-0.060236696
220	0xbc29c78e	-0.010362519
221	0xba40ae05	-0.00073501497
222	0xbd49d5f5	-0.04927631
223	0xbd935fcb	-0.071960054
224	0xbd34bc7f	-0.044125076
225	0x3d612a56	0.054972015
226	0xbd1dbb13	-0.038508486
227	0xbd0e0306	-0.034670852
228	0xbef8f7a4	-0.48626435
229	0x3ce4a473	0.027910447
230	0x3e2241ef	0.15845464
231	0x3ecdcdf0	0.4019618
232	0xbd084807	-0.033271816
233	0x3d34e395	0.04416235
234	0x3d27ec8c	0.040997073
235	0x3a2f80d8	0.00066949194
236	0xbd431eab	-0.04763667
237	0xbce49522	-0.027903143
238	0xbe87745b	-0.2645596
239	0xbd5a7dde	-0.053342693
240	0xbb1b3c78	-0.0023687165
241	0x3e922b0c	0.28548467
242	0xbe6ecbed	-0.23319979
243	0xbc796079	-0.015220755
244	0x3d9567b9	0.07295174
245	0xbc92b0f3	-0.017906642
246	0x3cd220d6	0.025650423
247	0xbddb8994	-0.107196
248	0xbdd32cc8	-0.10311276
249	0xbe4cce6e	-0.20000622
250	0xbbb224bf	-0.0054365094
251	0x3d845a76	0.064625666
252	0xbb99b7bf	-0.0046910937
253	0xbe0a24f4	-0.13490659
254	0x3d044044	0.03228785
255	0xbe00e1f6	-0.12586197

fc1.bias f4 [64]
0	0x3e09b93c	0.13449568
1	0xbbfefff0	-0.007781975
2	0xbddb874f	-0.107191674
3	0xbdee2689	-0.11628444
4	0x3e330bd2	0.17484978
5	0x3d4998a8	0.04921785
6	0xbe0c4c81	-0.13701059
7	0x3cd2974e	0.025706913
8	0xbc826958	-0.015919372
9	0xbe45e2cb	-0.19324796
10	0x3d992c61	0.07479168
11	0x3df9bf0c	0.121946424
12	0x3c372ee5	0.011180614
13	0x3dcf73b3	0.1012949
14	0xbe06e3d1	-0.13172843
15	0xbdc6ce7e	-0.09707354
16	0xbd307b50	-0.04308635
17	0x3d0e7e64	0.034788504
18	0x3c36f782	0.011167409
19	0xbe7b36b7	-0.24532591
20	0xbd81f454	-0.0634543
21	0x3d117280	0.035509586
22	0xbce5c51d	-0.028048092
23	0xbda46e9d	-0.0802891
24	0xbe344448	-0.17604172
25	0x3df95c4c	0.12175807
26	0x3c4cdafa	0.01250338
27	0xbe8658aa	-0.2623952
28	0x3e296a01	0.16544344
29	0x3df61d48	0.12017304
30	0xbe05e555	-0.13075764
31	0xbe4ba9dc	-0.19889015
32	0x3e3b93d1	0.18318106
33	0x3c7a2f5b	0.0152700795
34	0xbe203cb3	-0.15648155
35	0x3d14983f	0.036278006
36	0xbd82c2e7	-0.06384831
37	0x3cd6e2ac	0.026231132
38	0xbbdba62a	-0.006703158
39	0xbe1227dc	-0.14273018
40	0xbdabd09b	-0.08389398
41	0x3cc29b9c	0.023755841
42	0xbe04984e	-0.12948725
43	0x3e053077	0.13006769
44	0xbd0c2747	-0.034217145
45	0xbd9f8a98	-0.077901065
46	0xbcb6b5b5	-0.022303442
47	0xbe30ecb0	-0.17277789
48	0xbdaff53f	-0.08591699
49	0x3d0e7131	0.034775916
50	0xbe29a755	-0.16567738
51	0x3d9d744b	0.07688197
52	0xbce86b6a	-0.028371532
53	0xbd8a8c14	-0.06764999
54	0xbe484c02	-0.19560245
55	0xbcf364de	-0.029711183
56	0x3e113fb5	0.14184459
57	0xbd999290	-0.07498658
58	0xbe5a2818	-0.21304357
59	0xbd8b9c48	-0.06816918
60	0x3c76d2ec	0.015064936
61	0x3dacb35f	0.0843265
62	0x3d132701	0.03592587
63	0xbca43bc1	-0.020048024

fc2.weight f4 [64, 64]
0	0x3db3cac6	0.0877891
1	0x3dd8b1e6	0.105808064
2	0x3e296484	0.1654225
3	0x3ec522eb	0.38503203
4	0x3e33baa8	0.17551672
5	0xbccf72b2	-0.025323246
6	0xbd5f9c05	-0.05459215
7	0x3e9cbf25	0.30614582
8	0x3dd7efd7	0.10543793
9	0x3e101d19	0.140736
10	0x3de08c67	0.109642796
11	0x3d1f13b3	0.038837146
12	0xbd661b4e	-0.056178384
13	0x3e11ccad	0.14238234
14	0xbeb1aecd	-0.34703675
15	0x3db757ff	0.08952331
16	0x3d02163c	0.031759486
17	0xbe01b805	-0.12667854
18	0x3d119202	0.035539635
19	0xbe0c2214	-0.13684875
20	0x3c866811	0.016407045
21	0xbe1da476	-0.15394768
22	0x3d2c130c	0.042010352
23	0xbd6bf775	-0.05760904
24	0x3c1c393b	0.009535129
25	0x3db7b2d6	0.08969657
26	0x3e600746	0.21877775
27	0x3e261525	0.16219003
28	0x3dd78aca	0.10524519
29	0xbdb26bbd	-0.08711956
30	0xbda52482	-0.08063604
31	0xbef5587e	-0.47919077
32	0x3de1be69	0.11022646
33	0xbd0ab6da	-0.033865787
34	0xbc6a1643	-0.014287534
35	0xbd2b56ca	-0.041830815
36	0xbe6e8d9f	-0.23296212
37	0x3d965293	0.073399685
38	0x3e7cbb11	0.24680735
39	0xbd3dea8e	-0.046366267
40	0x3baba819	0.0052385447
41	0x3ccbe29a	0.024888325
42	0x3e9514d1	0.29117444
43	0xbcb728a1	-0.02235824
44	0x3deef27b	0.11667343
45	0xbe599617	-0.21248661
46	0xba8f453c	-0.0010930668
47	0x3e266f37	0.16253363
48	0xbc24b275	-0.010052313
49	0xbe0776e8	-0.13228953
50	0x3d90de9a	0.07073708
51	0x3abad34c	0.0014253645
52	0xbe4a151d	-0.19734617
53	0xbd8d01c9	-0.06885106
54	0xbea43392	-0.32070595
55	0x3d205246	0.039140962
56	0xbdabe3ac	-0.08393034
57	0x3dd4f78a	0.10398777
58	0x3a8a4140	0.001054801
59	0x3e52d6cd	0.20589752
60	0x3c80f194	0.015740193
61	0x3e312e41	0.173028
62	0xbccbfaf7	-0.024899943
63	0x3ddce36e	0.10785566
64	0xbe31a483	-0.17347912
65	0x3e1368e5	0.14395483
66	0xbe1c7dfd	-0.15282436
67	0x3e8879b2	0.26655346
68	0x3e294b03	0.16532521
69	0x3df26bef	0.11836993
70	0xbd840f34	-0.06448212
71	0xbe6e5bd7	-0.23277222
72	0x3e0a8079	0.13525571
73	0xbb9e84d7	-0.004837613
74	0x3e4b21f1	0.19837166
75	0x3e7d1a69	0.24717106
76	0xbb5a349a	-0.0033295513
77	0x3deeff70	0.116698146
78	0x3dd449b9	0.10365624
79	0xbdb817fa	-0.08988948
80	0xbd2f5194	-0.04280241
81	0x3df1e86a	0.118119076
82	0xbe29f8df	-0.16598843
83	0x3d874bf1	0.066062815
84	0x3baa16db	0.005190713
85	0xbe3ffdc3	-0.18749146
86	0x3dd197d2	0.102340356
87	0xbe18f3c9	-0.14936747
88	0x3c89216e	0.016739573
89	0x3dc3b054	0.09555116
90	0xbda3e5b3	-0.08002796
91	0xbdedcb78	-0.11611074
92	0x3e5f0c7a	0.21782103
93	0x3dc2c3d4	0.095100075
94	0x3e2a81f2	0.16651133
95	0xbe10a277	-0.14124475
96	0x3c9461cb	0.018113038
97	0xbd91871a	-0.07105847
98	0xbbba4e62	-0.0056856135
99	0xbe516d29	-0.20451798
100	0xbd9d8f6c	-0.07693371
101	0x3d5df6af	0.054190334
102	0x3e01184c	0.12606925
103	0xbd2c8c73	-0.04212613
104	0xbdb39abc	-0.087697476
105	0x3d699c40	0.057033777
106	0xbe824940	-0.2544651
107	0xbd335b2e	-0.043788128
108	0xbe64344a	-0.22285572
109	0xbedb0187	-0.42774603
110	0x3bf18112	0.0073701227
111	0xbd6e787d	-0.058220375
112	0xbe0c07ff	-0.13674925
113	0xbdf002d2	-0.11719288
114	0x3c9c2b4f	0.01906362
115	0x3d692c90	0.056927264
116	0xbc873abd	-0.0165075
117	0xbc7a0878	-0.015260808
118	0xbdb938a5	-0.09044007
119	0x3e19224d	0.14954491
120	0xbd76badf	-0.060236808
121	0xbdf21b5f	-0.11821627
122	0x3e5d7f34	0.21630555
123	0xbd465885	-0.048424263
124	0xbd4efbd1	-0.05053312
125	0xbd6b3056	-0.057419144
126	0xbe9d1453	-0.3067957
127	0x3e3e920b	0.18610398
128	0xbe1c11e3	-0.15241198
129	0xbda05087	-0.07827859
130	0xbc1341f7	-0.008987895
131	0xbe2fcf45	-0.17168911
132	0xbe73d2df	-0.2381091
133	0xbd828516	-0.063730404
134	0xbc906d46	-0.01763023
135	0x3ed3553d	0.4127597
136	0x3ca6e7da	0.020374227
137	0xbe036e20	-0.12834978
138	0x3efbb961	0.4916487
139	0xbea1669d	-0.315236
140	0x3d167bec	0.036739275
141	0xbbedd551	-0.0072580953
142	0xbd8854bd	-0.066567875
143	0xbd4ad774	-0.04952188
144	0xbe0430a5	-0.12909181
145	0xbd1ca80c	-0.0382462
146	0x3d4c3063	0.049850833
147	0xbd80da2f	-0.06291615
148	0xbd2b4b59	-0.041819904
149	0x3cffc226	0.031220507
150	0x3d2066ac	0.039160416
151	0xbd3a4014	-0.045471266
152	0xbdc13be8	-0.09435254
153	0x3d58a4af	0.05289143
154	0x3e3b6b2a	0.18302599
155	0x3cc35290	0.02384308
156	0x3ea01ba8	0.312711
157	0xbeeb7fd4	-0.45995963
158	0x3e6ce74b	0.23135106
159	0x3da27924	0.07933262
160	0x3c549330	0.012974545
161	0x3e56eb11	0.20988108
162	0xbe04f272	-0.1298311
163	0x3e70cdbd	0.23515983
164	0x3d7f9911	0.062401835
165	0xbd9a1ac6	-0.07524638
166	0x3df36e9d	0.11886332
167	0x3e25c16b	0.16187064
168	0x3d94c2f3	0.07263746
169	0x3e05ee87	0.13079272
170	0x3d957fc8	0.07299763
171	0x3ccfe7ac	0.025379024
172	0x3d58e9e6	0.052957438
173	0x3cba09b6	0.022709709
174	0x3d567edb	0.052367073
175	0xbda912d7	-0.082555465
176	0x3e11c3c4	0.14234835
177	0x3d88e2c8	0.0668388
178	0xbe6a5134	-0.22882539
179	0xbd024399	-0.031802747
180	0xbe156ab9	-0.14591493
181	0xbceafdb6	-0.028685432
182	0xbec10a3b	-0.37703118
183	0xbebbfc51	-0.3671594
184	0x3c8c8809	0.01715471
185	0xbe2a5e80	-0.16637611
186	0xbcd61c4d	-0.026136542
187	0x3e81f1bc	0.2537974
188	0xbce8a554	-0.028399147
189	0xbe657d12	-0.22410992
190	0x3e0633a1	0.13105632
191	0xbd8ff176	-0.07028477
192	0x3e04345c	0.12910599
193	0xbe2e2ea5	-0.17009981
194	0xbdb297d6	-0.08720367
195	0xbd9e47cf	-0.0772854
196	0x3e1a587d	0.15072818
197	0xbdd8c661	-0.10584713
198	0x3c93c549	0.018038409
199	0x3edbc7a7	0.4292576
200	0x3c8c9249	0.017159598
201	0xbe21c304	-0.15797049
202	0x3e89f971	0.2694812
203	0x3e866918	0.26252055
204	0xbd8d63ba	-0.06903787
205	0x3dadac0c	0.08480081
206	0x3e1a5f95	0.15075524
207	0x3c41076d	0.011781556
208	0xbcb52409	-0.02211191
209	0xbe417f26	-0.1889616
210	0x3d4f9f66	0.050689124
211	0xbc83107d	-0.015999073
212	0xbd44cc48	-0.04804638
213	0x3d7983ae	0.060916595
214	0x3d480207	0.04883006
215	0x3e0ff38c	0.1405775
216	0xbacdc1af	-0.0015697981
217	0xbdc5ae24	-0.09652355
218	0xbe600190	-0.21875596
219	0xbbe6504e	-0.007028616
220	0x3eb00585	0.3437921
221	0x3e0b006d	0.13574381
222	0x3e21c76b	0.15798728
223	0x3e45a7b4	0.19302255
224	0xbe3bbde3	-0.18334155
225	0x3e72a29f	0.23694848
226	0xbc1991a0	-0.009373099
227	0x3e95b842	0.2924214
228	0xbde41c66	-0.11138229
229	0x3ddf942b	0.10916933
230	0x3e6629e7	0.22476922
231	0x3c775194	0.015095133
232	0x3cbd2365	0.023088166
233	0xbe0f4bbf	-0.13993739
234	0x3dafa5a7	0.085765176
235	0x3d423e2f	0.047422584
236	0xbc0d1bbb	-0.0086125685
237	0x3dac98f1	0.08427609
238	0xbd9f831e	-0.077886805
239	0xbd8f328d	-0.06992064
240	0x3e9d197f	0.30683514
241	0x3ddf943d	0.10916946
242	0xbdd4ccfd	-0.10390661
243	0xbc67245e	-0.014107792
244	0xbce52d50	-0.027975708
245	0xbe6870bc	-0.22699255
246	0xbe26d8e2	-0.16293672
247	0x3deb2ecb	0.114835344
248	0xbeb1f624	-0.34758103
249	0xbe658d39	-0.22417153
250	0xbd927033	-0.071503066
251	0x3cdf8500	0.027285099
252	0x3d9f340f	0.07773601
253	0xbd24dbcf	-0.04024869
254	0x3c090be3	0.00836465
255	0xbe064880	-0.13113594

fc2.bias f4 [64]
0	0xbd568c4c	-0.05237989
1	0x3e0b81ae	0.13623688
2	0x3df8e75e	0.12153505
3	0x3dbb843b	0.0915608
4	0x3e45ef45	0.19329555
5	0xbe16fcd9	-0.14744891
6	0xbdfefae1	-0.12450195
7	0x3ba11e87	0.004916969
8	0x3d76063a	0.060064532
9	0x3ed25f71	0.4108844
10	0xbd14be91	-0.03631455
11	0x3e8cc395	0.27492967
12	0x3d89f570	0.067362666
13	0xbe576a59	-0.21036662
14	0xbdb9de2a	-0.090755776
15	0x3df0ec97	0.11763876
16	0x3d2b4d90	0.041822016
17	0x3d8b8d87	0.068141036
18	0xbd714225	-0.05890097
19	0x3d90cba0	0.070700884
20	0x3e600457	0.21876656
21	0x3f06c179	0.52638966
22	0xbe33adcb	-0.17546766
23	0xbd8f9ef3	-0.07012739
24	0x3cfd3f28	0.030913904
25	0xbd996752	-0.0749041
26	0xbce0de7f	-0.027449844
27	0xbe4ebb84	-0.20188719
28	0xbd8b9efa	-0.06817432
29	0x3d782762	0.060584433
30	0x3c70d95e	0.014700262
31	0x3d9b9a3e	0.07597779
32	0x3d9c55c3	0.07633545
33	0x3d18912c	0.03724782
34	0x3d8c8be6	0.06862621
35	0xbda4a5ba	-0.08039422
36	0xbe2248af	-0.15848039
37	0xbd2c4a14	-0.042062834
38	0x3eb65c45	0.3561727
39	0x3c999bfd	0.018751139
40	0xbe0a3137	-0.13495336
41	0x3ee8529d	0.4537553
42	0x3e38f889	0.18063559
43	0x3ced3868	0.02895756
44	0x3dc007ff	0.09376525
45	0xbde40d00	-0.11135292
46	0x3e85942a	0.26089603
47	0xbe2c98c0	-0.16855145
48	0x3d9080c5	0.07055811
49	0x3cedc995	0.029026786
50	0xbdfeaaa3	-0.1243489
51	0x3ebbbe0b	0.3666843
52	0xbdbbe76f	-0.09175002
53	0xbd494834	-0.049141124
54	0x3e2d4167	0.1691948
55	0xbcf6cd27	-0.030127121
56	0xbe6327ee	-0.221832
57	0xbe11fba3	-0.14256148
58	0xbc7ab41c	-0.0153017305
59	0xbcd78dc4	-0.026312716
60	0xbda0c907	-0.07850843
61	0x3e4daeb3	0.20086174
62	0x3cde1536	0.027109724
63	0xbd7528cb	-0.059853356

fc3.weight f4 [4, 64]
0	0xbdaf11e4	-0.08548334
1	0x3dda889e	0.10670589
2	0x3e87b181	0.26502612
3	0x3e1be545	0.15224178
4	0x3e403b33	0.18772583
5	0xbe198850	-0.14993405
6	0x3dc0db80	0.09416866
7	0xbe724483	-0.23658948
8	0x3ecfbb8d	0.40572777
9	0x3e0f5037	0.13995443
10	0xbe985734	-0.2975403
11	0x3e2b90d6	0.1675447
12	0x3ec4f012	0.3846441
13	0xbe4d28a3	-0.20035033
14	0xbd1c5030	-0.03816241
15	0x3d74a1a3	0.05972446
16	0x3e2b125f	0.16706227
17	0x3e91504e	0.2838158
18	0xbe892e7c	-0.26793277
19	0x3e6e97c0	0.23300076
20	0x3e0ace11	0.1355517
21	0x3e2c9712	0.16854504
22	0xbdf9941b	-0.12186452
23	0xbf24f025	-0.6442893
24	0xbd9d97bd	-0.076949574
25	0xbd7ccf56	-0.06172117
26	0xbe30bce2	-0.17259553
27	0xbe34e302	-0.17664722
28	0x3e2c6f40	0.16839314
29	0x3e6a2148	0.22864258
30	0xbd9e7711	-0.07737554
31	0x3e74ed3b	0.23918621
32	0x3e74d5c8	0.23909676
33	0x3e151dae	0.14562103
34	0x3cdd6601	0.027026178
35	0xbcce66f7	-0.025195582
36	0xbd85c3ac	-0.06531462
37	0x3edd81cf	0.432631
38	0x3df94981	0.12172223
39	0x3e2f77e5	0.1713558
40	0xbe7074e2	-0.23482087
41	0x3e1a4844	0.1506663
42	0x3d454ab0	0.04816693
43	0x3d11c76a	0.035590567
44	0x3d3bed51	0.04588062
45	0x3d4c8d12	0.049939223
46	0x3e5a11e2	0.21295884
47	0x3b5f9a74	0.003411916
48	0x3e359b75	0.17735083
49	0x3e6ff7d9	0.2343439
50	0xbee0a1ad	-0.4387335
51	0x3ea267e2	0.3171988
52	0x3e8601ee	0.26173347
53	0xbe3dfb19	-0.18552817
54	0x3e251a3e	0.16123292
55	0x3e24dcc9	0.16099848
56	0xbe925de1	-0.2858725
57	0xbd961eaf	-0.07330071
58	0x3e7aa4db	0.2447695
59	0x3e072337	0.13197027
60	0xbeb7f4e5	-0.35929027
61	0x3e645713	0.22298841
62	0x3e1860a1	0.14880611
63	0x3e030c63	0.12797694
64	0x3e5ff4a6	0.2187067
65	0x3aa9d8e7	0.0012958319
66	0x3e8a3a45	0.2699758
67	0x3e754296	0.23951182
68	0x3e24f36f	0.16108488
69	0xbe6c33ba	-0.23066607
70	0xbc59bb38	-0.013289265
71	0x3cd5b243	0.026085978
72	0x3e9e24e6	0.30887526
73	0x3db1bb0a	0.08678253
74	0x3ee721db	0.45143017
75	0x3e186698	0.14882886
76	0x3e998e3c	0.2999133
77	0xbe151cfe	-0.14561841
78	0xbc46f1d7	-0.01214262
79	0x3da45a64	0.08025053
80	0x3e0e05f7	0.13869463
81	0x3e4e5bfa	0.20152274
82	0xbdc14fe3	-0.09439065
83	0x3e367390	0.17817521
84	0x3e0cd4d0	0.13753057
85	0x3e755431	0.23957898
86	0xbe15459a	-0.14577332
87	0x3cdb1bc2	0.026746634
88	0x3e6086fd	0.21926494
89	0xbde66db7	-0.11251395
90	0x3ce66752	0.028125439
91	0xbea7d4d4	-0.32779562
92	0x3e8bbc71	0.27292207
93	0x3e3987f7	0.18118273
94	0x3de5fe2c	0.1123012
95	0x3e007c32	0.12547377
96	0x3e5bb7ab	0.21456783
97	0x3ebb337c	0.36562717
98	0x3dd18dcc	0.10232124
99	0x3d37f239	0.044908736
100	0x3ca3278b	0.019916316
101	0x3eefc420	0.4682932
102	0x3dffd86b	0.1249245
103	0xbcab3cfb	-0.020903101
104	0x3d297a2b	0.041376274
105	0x3e38231e	0.17982146
106	0x3de47c97	0.11156576
107	0x3e0f75da	0.140098
108	0xbc9c86c6	-0.019107234
109	0x3cb17a23	0.021664685
110	0x3dde87cb	0.10865744
111	0xbcaa47c4	-0.020786174
112	0x3ed3579a	0.41277772
113	0x3e69df8d	0.22839184
114	0xbdd8b3a1	-0.105811365
115	0x3e656502	0.22401813
116	0x3e95b245	0.2923757
117	0xbe28c7b3	-0.16482429
118	0x3e20fbf7	0.15721117
119	0x3eae8d2d	0.34092084
120	0xbeb2f742	-0.34954268
121	0xbd8d403e	-0.06897019
122	0x3e5d85b2	0.21633032
123	0xbd381258	-0.04493937
124	0xbdc2443b	-0.0948567
125	0x3ce85ea5	0.028365443
126	0x3e3fa0b3	0.18713646
127	0x3bb8e9c5	0.005643102
128	0x3d1f5b2a	0.0389053
129	0x3e44dab1	0.19224049
130	0x3eb9cb88	0.36288095
131	0x3ea9abe9	0.3313897
132	0x3db57fce	0.088622674
133	0xbe32ca66	-0.17460021
134	0x3df6f9a4	0.12059334
135	0x3d2b04f5	0.041752774
136	0x3dc1bd0e	0.094598874
137	0x3e1a37fe	0.15060422
138	0x3e1ef578	0.15523326
139	0x3e38155d	0.179769
140	0x3eea8a47	0.45808622
141	0xbeb66bf3	-0.35629234
142	0xbd8e55b7	-0.069499426
143	0x3e4821b2	0.19544104
144	0x3d97d413	0.07413497
145	0x3e4071a1	0.18793346
146	0x3d320a30	0.043466747
147	0x3e4bfd9b	0.19920962
148	0x3dcc5cda	0.099786475
149	0x3e87476c	0.26421678
150	0xbdc93c3f	-0.09825944
151	0xbf12a44d	-0.57281953
152	0x3eff64b7	0.49881527
153	0xbe065d0f	-0.13121437
154	0x3e195a52	0.1497586
155	0xbeb04f28	-0.3443539
156	0x3ea8baf1	0.32955125
157	0x3e633375	0.22187598
158	0x3e799c2e	0.24375984
159	0x3e4bb130	0.1989181
160	0xbd00837d	-0.031375397
161	0xbd2fb5ad	-0.04289787
162	0x3e3a986f	0.18222211
163	0xbe3a54fe	-0.18196484
164	0x3df92122	0.12164523
165	0x3cfe4987	0.03104092
166	0x3df71f9c	0.12066576
167	0x3eaa7709	0.33293942
168	0x3e2ba948	0.16763794
169	0x3e27e628	0.16396391
170	0x3e27722c	0.16352147
171	0x3e3ff529	0.18745865
172	0x3d2c7043	0.04209925
173	0xbe411793	-0.18856649
174	0x3e2af669	0.1669556
175	0xbe501f74	-0.20324498
176	0x3ea36494	0.31912673
177	0x3de26b52	0.11055626
178	0xbe5ad5da	-0.2137064
179	0x3e84247e	0.2580909
180	0xbf05d777	-0.522819
181	0xbe65afc5	-0.22430332
182	0x3e374958	0.17899072
183	0xbc9e722c	-0.01934155
184	0xbe745c1e	-0.23863265
185	0xbd6aa5ff	-0.057287212
186	0x3f09676d	0.5367344
187	0xbe119710	-0.14217782
188	0xbe3c7037	-0.18402182
189	0x3e07065a	0.13186017
190	0xbe556c94	-0.208422
191	0xbe75db1c	-0.24009365
192	0x3cc3c674	0.02389834
193	0x3e342c2f	0.1759498
194	0x3d9dfc9b	0.07714196
195	0x3dbce191	0.09222711
196	0x3e50f654	0.20406467
197	0xbdf24f70	-0.11831558
198	0xbd8bf402	-0.0683365
199	0x3dd12fef	0.10214221
200	0x3ed7ae6f	0.4212527
201	0x3e3e6837	0.18594442
202	0x3ea16253	0.31520328
203	0x3da1a381	0.07892514
204	0x3e8542c2	0.26027495
205	0xbd14d739	-0.036338065
206	0x3d72be00	0.05926323
207	0xbd9ec8d6	-0.0775315
208	0x3ecd36ca	0.40080863
209	0x3dc2346e	0.094826564
210	0x3e81a4c0	0.25321007
211	0x3e960f87	0.2930872
212	0x3de76933	0.11299362
213	0x3e645ba5	0.22300585
214	0xbee21291	-0.4415479
215	0x3e3d61f8	0.18494403
216	0xbc696b6f	-0.014246806
217	0xbdec35d4	-0.115337044
218	0xbcab5d81	-0.02091861
219	0xbcfe617a	-0.03105234
220	0x3f188d1a	0.59590304
221	0xbdad097b	-0.08449074
222	0xbe0d8f86	-0.13824281
223	0x3e3af90e	0.1825907
224	0x3e4a2d02	0.19743732
225	0x3f0cd64f	0.5501451
226	0x3db8ee44	0.090298206
227	0x3e9cffca	0.30663902
228	0xbef25733	-0.47332153
229	0x3e70ea48	0.23526871
230	0x3e3e2fad	0.18572874
231	0xbd052698	-0.03250751
232	0xbee23928	-0.44184232
233	0x3e66d426	0.22541866
234	0x3d5fe03a	0.0546572
235	0xbd11c3c9	-0.035587106
236	0x3e4b6791	0.19863726
237	0xbe8e8e32	-0.2784286
238	0x3dd75fb3	0.105163
239	0x3e99f425	0.3006908
240	0x3e9add45	0.3024694
241	0x3d59649e	0.05307447
242	0xbe3fa0b1	-0.18713643
243	0x3ea7d573	0.32780036
244	0xbd950016	-0.07275407
245	0xbea26a51	-0.31721738
246	0x3db33736	0.08750765
247	0x3e95100e	0.2911381
248	0xbec3ef4b	-0.38268504
249	0xbee268b5	-0.4422051
250	0x3d735855	0.059410412
251	0x3c9d1e7b	0.019179573
252	0xbec24817	-0.37945625
253	0x3d147763	0.03624667
254	0xbe24edd3	-0.16106348
255	0xbe352d28	-0.17693007

fc3.bias f4 [4]
0	0x3e6af5a8	0.22945273
1	0x3e8a5b26	0.27022666
2	0x3e31fc17	0.17381321
3	0x3e4b0597	0.19826351
